data.pth (torch, 4991 bytes, 6 tensors)

l1.weight f4 [8, 54]
00000000: a377 12bf e054 593d 3840 033e bccd 053e
00000010: 0e03 41bd 0c5d 343d 2e2a df3d d6e6 d63d
00000020: c463 2a3d dcc6 d33d b8ae d33d 3254 0a3e
00000030: c054 263c d891 003e 2c82 693d 98b6 e93c
00000040: ca33 bcbd 00ee 143c 0060 d53c 2c72 f93d
00000050: 96b7 47bd a052 8f3c da12 16bd de09 92bd
00000060: 8371 01be a44b d6bd 98a5 84bd 32b2 b63d
00000070: a069 3a3c 4256 68bd e474 943d dc80 dbbd
00000080: 1454 afbd 4810 27bd ea07 e93d ee33 babd
00000090: b879 22bd c065 773d 5ee2 cf3d f801 fb3c
000000a0: 483a 813d 6443 06be dc5c bd3d 7853 e5bd
000000b0: 7eb5 dd3d 9215 7abd 06d4 a33d 529b 54bd
000000c0: b075 d7bd e8d6 053e 6ccd 613d 9014 c7bd
000000d0: 4cdd abbc d133 a3bd 8547 d53f 2c19 ed3d
000000e0: 7290 adbd 48a5 b4bd 7637 b83d 5aef e7bd
000000f0: 0ce3 733d 082e b43c 500d 2f3d 9001 a93d
00000100: a0ce 793c 1c64 083d 3696 b6bd 84d7 7dbd
00000110: 587b a3bd 5025 82bd e829 b9bd d84f bf3c
00000120: 28e8 a8bc aaa0 6cbd b428 113d 8411 283d
00000130: d8a5 85bd 30a7 c9bd 0033 9c3b ae35 aabd
00000140: d290 c33d a146 c2bd 277c 06be fc1c d23d
00000150: 9aae da3d 18c4 8d3d 183c 453d a0e3 05bd
00000160: f8e3 c1bd 3cd9 8a3d f041 61bd c065 cabd
00000170: ec4a 5bbd 00b8 e639 4051 91bc 7510 95bd
00000180: 3e87 053e e440 c4bd ccf2 903d babf 72bd
00000190: 20c5 943d 5aa0 67bd 4018 2a3b f886 4fbd
000001a0: 5c03 64bd 8088 88bb a06d f23c bce4 c23d
000001b0: c057 6c3b 40e1 2e3b 60c7 bc3d a8d8 b3bd
000001c0: da40 d53d 3655 7fbd 4882 f8bc f085 ee3c
000001d0: 0011 49bd 4402 c5bd d84e 133d 985c 92bd
000001e0: 24af c03d 0ab7 b3bd fd8a bbbd 123a 71bd
000001f0: a85d 79bc 3862 2f3d b4eb f23d 043c cabc
00000200: 980e d0bd 4a68 a2bd 98d2 a53d cc50 f93d
00000210: ef66 05be dc98 083e b042 283c 2857 53bd
00000220: 00f8 263d b09b 09be 5c36 f3bd 783c 873d
00000230: 3a18 043e dace b83d 1a11 07be 48bd 443d
00000240: 2ed1 bf3d 6088 cbbb 7c27 d5bc 66ac f1bd
00000250: 0a7e 09be 66cb 0a3e 2aa1 813d 7a4e 80bd
00000260: 5200 e33d 5c6e 01be 5ab9 8c3d 6870 acbd
00000270: 224b 62bd 4472 013d 4c2a 02be afef dbbd
00000280: 60cb b3bd 0c0f ea3d 9725 8e3d fe11 8a3d
00000290: 0e72 01be c02c a1bb deca ffbd 8057 05bc
000002a0: ae8d d13d 4cb5 f6bd d8e0 d53d 0eeb 87bd
000002b0: 629a 1ebd 9818 053e 2c04 3cbd 76d0 b9bd
000002c0: 4019 1cbb 4027 813b 4dd7 f9bd 2027 cfbb
000002d0: 346b fbbc 0426 2d3d b43e eebc b8cf 72bd
000002e0: 0062 333b 009f 09bc b8ef eb3c 4d69 abbd
000002f0: 002c 793d 60ba a2bb 2edf 9cbd ce13 843d
00000300: 20c7 333d 585b 5a3d d5b5 c9bd 7843 853c
00000310: 009c 033a 1e0c 28bd 4c4b 903d 8880 023e
00000320: b0d1 003c 02b4 c8bd 38ba 07bd 2813 e23d
00000330: 623d acbd 507d 503c a0df 7dbc 2ba1 efbd
00000340: 24ae f73d 0c23 a8bd 9111 ddbd 9665 d5bd
00000350: 745a cf3d a494 893d 5ce3 423d 52e3 e53d
00000360: 78f6 a63d d4f7 eebd d6d2 913d 6825 63bd
00000370: c4a0 323d 80bf 4d3d 0223 cebd 00af e73b
00000380: e28b 08be ce83 2ebd c6e8 873d 09df 93bd
00000390: b4ec f13d 9841 30bd 28a6 f73d 759d b0bd
000003a0: f052 df3d a043 593c 087e 813c 3890 9b3c
000003b0: e8f9 fb3d 2a02 60bd 883f 08be 82ac 99bd
000003c0: 7a6d c93d 70e8 2b3d 091b fabd 027c 06bd
000003d0: d8e8 583d c050 5b3b 7093 08bd 1215 85bd
000003e0: 50cb a2bc ce5b e83d 120e 60bd d42b 033e
000003f0: ceca d13d 20eb 0e3d b5a7 8bbd 6a4f 8e3d
-0.572138 0.05305946 0.12817466 0.13066763 -0.047122054 0.04403405 0.10896717 0.10493247
0.04159905 0.10340664 0.10336059 0.1350868 0.010152042 0.12555635 0.057008907 0.02852945
-0.091895655 0.009089947 0.026046753 0.1217998 -0.048759066 0.017495453 -0.036639072 -0.07130788
-0.12640958 -0.10463646 -0.06476897 0.08920707 0.011377722 -0.056722887 0.072488576 -0.10717937
-0.085609585 -0.04078701 0.113784626 -0.09091936 -0.03966686 0.06039977 0.10150598 0.030640587
0.063099444 -0.13111645 0.09246227 -0.11197561 0.108256325 -0.061055727 0.07999425 -0.051905937
-0.10520494 0.13070261 0.055127546 -0.09720719 -0.020979546 -0.079688676 1.6662451 0.11577067
-0.084748164 -0.088205874 0.08994953 -0.113249496 0.0595427 0.021994606 0.042737305 0.08252251
0.015247017 0.033298597 -0.08915369 -0.06197311 -0.0798251 -0.06354773 -0.09041196 0.023353502
-0.020618513 -0.05777041 0.03543921 0.04103233 -0.06525773 -0.098463416 0.004766822 -0.0831102
0.09549107 -0.09486128 -0.13133298 0.102594346 0.10677834 0.069221675 0.048153013 -0.032687783
-0.0946731 0.067797154 -0.054994524 -0.098826885 -0.053538248 0.0004400611 -0.017738938 -0.072785296
0.13039872 -0.095826894 0.0707756 -0.059264876 0.07264161 -0.056549408 0.0025954396 -0.050665826
-0.055667266 -0.0041666627 0.029593289 0.09516284 0.0036063045 0.0026684552 0.09217715 -0.08781558
0.1041276 -0.062337123 -0.03033556 0.0291166 -0.049088478 -0.09619573 0.035963863 -0.07146567
0.094084054 -0.08775146 -0.09157369 -0.05889327 -0.015220083 0.042818278 0.11861363 -0.02468682
-0.101590335 -0.07930048 0.08096808 0.12173614 -0.13027547 0.13339561 0.010269806 -0.05159679
0.040763855 -0.13438296 -0.118756026 0.066033304 0.12899867 0.09023829 -0.13190117 0.048032075
0.0936607 -0.0062113255 -0.026019804 -0.118004605 -0.13426986 0.13554153 0.06329568 -0.06264968
0.110840455 -0.12639755 0.068712905 -0.08419877 -0.055247433 0.031603113 -0.12711447 -0.107390754
-0.08779025 0.11428651 0.069407634 0.06741713 -0.12641165 -0.0049186647 -0.12489866 -0.008138537
0.102321014 -0.120462984 0.10443276 -0.0663663 -0.03872145 0.12997663 -0.045902416 -0.09072964
-0.002381876 0.0039414465 -0.121992685 -0.0063218027 -0.030690767 0.042272583 -0.029082634 -0.059280127
0.0027371645 -0.008399725 0.02880083 -0.08369694 0.060832977 -0.0049660653 -0.07659756 0.0644909
0.043891072 0.05330977 -0.09849135 0.016267523 0.0005020499 -0.04102718 0.07045612 0.12744343
0.007862493 -0.09799959 -0.033136576 0.1103881 -0.08410145 0.012725189 -0.015495211 -0.11700662
0.120937616 -0.0820981 -0.10794366 -0.104197666 0.101246744 0.06717804 0.047580108 0.112249985
0.08152479 -0.11668363 0.07120292 -0.055455595 0.04361035 0.050231457 -0.10065271 0.007070422
-0.13334611 -0.042606167 0.06636195 -0.07220275 0.11812726 -0.043031305 0.12092239 -0.086237825
0.10904491 0.013260752 0.015807167 0.018989667 0.12303525 -0.054689564 -0.13305485 -0.075036064
0.09835334 0.041969717 -0.12212188 -0.032833107 0.052956432 0.0033464879 -0.033343732 -0.064981595
-0.019872338 0.11345635 -0.05470092 0.12809688 0.1024376 0.0348922 -0.06819097 0.06948741

l1.bias f4 [8]
00000000: a768 0f3f b8db 083e 328b f1bd 2a08 f93e
00000010: 7600 d8bd b60c 283e 9184 e5bd 0a5a e4ba
0.5601906 0.13365066 -0.117941275 0.4863904 -0.10546963 0.16411099 -0.11206926 -0.0017421853

l2.weight f4 [8, 8]
00000000: 9c9b b3bd 52fd 7fbd 3ba5 963e 3e77 8e3e
00000010: 1c8a cd3d f2ad 94be ec3b d93d 482e 273d
00000020: daf5 9dbe bafa 093e f4f2 e0bd 80f4 fdbd
00000030: 0744 92be eeb7 60be f16e ac3e b066 9c3d
00000040: 73cb 7b3f 8149 adbe ba27 f9bd d295 583f
00000050: dd60 28be 7a92 58be f662 88be 6a4a 713c
00000060: 30fa 2b3d 6e04 473e 385a 043d 2a60 53be
00000070: 077f 8f3e b61a 64be a518 ae3e 0704 a03e
00000080: 51c6 ac3e da7e f9bd 4775 af3e 380a b3be
00000090: 2f2e 00be e83b 7bbd e6a7 4b3e 51dd b13e
000000a0: 07ea 893e e18d 953e 8075 02bd 30f5 abbe
000000b0: 300c 92bc 1f7b aebe d32c 863e 9c5b fd3d
000000c0: a3ac 993e b8be 4abe 70a5 da3d 2288 193e
000000d0: d87c 97be 949a 82bd 88c7 0e3e 6cfe 4fbe
000000e0: 87b4 97be 2bc7 ab3f 3ec6 95be fbce 8b3e
000000f0: 98ee d0bd d202 b53f a291 3dbe 057b a4be
-0.087699145 -0.062497444 0.29422936 0.2782535 0.10036108 -0.2903896 0.10607132 0.04081562
-0.30851632 0.13474551 -0.1098384 -0.1240015 -0.28567526 -0.21945164 0.33678392 0.076367736
0.98357314 -0.33845142 -0.1216578 0.8460361 -0.164432 -0.21149626 -0.26638 0.014727214
0.041986644 0.19435284 0.0323126 -0.20642152 0.28026602 -0.22275814 0.34003177 0.31253073
0.33745053 -0.12182398 0.34269163 -0.34968734 -0.12517618 -0.061336428 0.19888267 0.34739164
0.2693636 0.29209808 -0.031850338 -0.335855 -0.017828077 -0.3407831 0.26206073 0.12370989
0.30014524 -0.19799316 0.10676086 0.14993337 -0.29587436 -0.0637714 0.13943303 -0.20311898
-0.2962992 1.3420156 -0.2925281 0.2730635 -0.10201758 1.4141486 -0.18512586 -0.32125106

l2.bias f4 [8]
00000000: bcc3 b83e 762e 30be 38fc 013f 96f0 dcbd
00000010: f8f9 64be 80a3 54bd e6d8 a0be cce2 033f
0.36086833 -0.17205223 0.5077548 -0.107880756 -0.2236098 -0.05191374 -0.3141548 0.5151794

l3.weight f4 [7, 8]
00000000: b438 81be 7ad5 a4be 2467 ddbd f8df 91bd
00000010: 62c7 203e 309c e1bc ca8b 043e b95b d4bd
00000020: 9756 c6bc 749d abbe 0323 9fbd 0d94 4ebe
00000030: 0331 4abe 1701 af3e 6716 823e 8268 07bf
00000040: f85d 3bbc 70da bebc 2f3e d63d 60e5 ee3c
00000050: 1a99 163e 3e11 71be 3659 6f3e dc1b c1be
00000060: 5eb5 1d3e ce32 163e b6f5 363e 46f6 98be
00000070: 454a 813e 70a7 18bd 047f 93be 371b 66bd
00000080: 99b9 a3be cc17 873d afd3 d9bd cd50 89be
00000090: ea92 793e ee29 28be a80b d83d 0026 31bd
000000a0: fd58 5bbe a812 893d 436d 433d e025 1ebe
000000b0: 5a8e 3dbe a4fb a9bd 002a 3eba 0c96 f4be
000000c0: 894d d8be 9107 b13e b9ad 8ebf dbd4 a93e
000000d0: 6761 a43e b844 3cbd e2c2 303e d214 5a3f
-0.25238574 -0.3219412 -0.10810688 -0.07122797 0.15701059 -0.027540296 0.1294395 -0.10369057
-0.024211211 -0.33518565 -0.0777035 -0.20173664 -0.19745259 0.3418052 0.25407717 -0.5289384
-0.011435978 -0.023297518 0.10461079 0.029162109 0.14706841 -0.23541734 0.23373875 -0.37716568
0.15401217 0.14667818 0.17867169 -0.29875392 0.25251976 -0.037269056 -0.28807843 -0.056178298
-0.31977537 0.06596336 -0.106360786 -0.2681946 0.2437245 -0.16422245 0.10549098 -0.04324913
-0.21420665 0.066930115 0.047711622 -0.15444136 -0.18511334 -0.0829995 -0.00072541833 -0.47770727
-0.42246655 0.34576085 -1.1146766 0.33170208 0.32105562 -0.045963973 0.17261842 0.8518802

l3.bias f4 [7]
00000000: 2c01 b1bd 22ad 233e d82a 4fbe 7713 3ebd
00000010: 3d00 1dbe 8a4f 833e 3aa2 083e
-0.08642802 0.15984014 -0.20231187 -0.046405282 -0.15332122 0.2564662 0.13343135
